results/model.pth (torch, 89851 bytes, 8 tensors)

conv1.weight f4 [10, 1, 5, 5]
00000000: 707c 39be fa63 5bbd 9dc5 923e a0ea 343d
00000010: 936b 0b3f e1a2 a23e 1ff9 023f 2652 3fbe
00000020: 8cde 5c3d d529 82be 26bb f3be 4881 0f3e
00000030: 7617 ef3e 28ed 253e d7b2 2cbf 8306 04bf
00000040: d5df f3bd 0417 e1be 69db 49bf e0fb 75be
00000050: 3d2a b1be b152 f0be 0911 98be 35d0 593d
00000060: 744a 5f3d d74f 94bb 86f1 aa3d ac7f 303e
00000070: b23d 713c 6890 b4be 1313 4fbe 07f3 6a3d
00000080: 388b fd3d 2cbc 0b3e dc14 e73e 2cf9 83be
00000090: a0f3 f63d e431 283e 0f31 443d 9677 923e
000000a0: 45c5 50bf b35f 91be c854 f23d d8b6 f83e
000000b0: bc8d 22be 2cc7 33be 4b3d 29bf 8b38 2ebf
000000c0: dcd9 2ebf 6eb8 30bf 9e24 c33d 58e2 063e
000000d0: abae fcbd 663f 0f3e ea83 633e 0e2d babb
000000e0: 5670 4cbe 885d 1cbe ca33 473d bfc0 5d3e
000000f0: a037 babd d3b1 bcbd 6c80 b43d d1c6 ca3e
00000100: f45a 28be 4422 033e 438a 90ba 2705 c33e
00000110: 2edc a43e fc7f 16bf be01 6e3e df27 e8bd
00000120: e6a5 cdbd bf8c 6fbe ab92 83be d449 10be
00000130: 6c77 f6be 7a5f d2bd 8fc9 5abb 1bcf 9d3e
00000140: 9a17 f13d ce5c 5bbe 7cb0 5bbf 74c4 bcbe
00000150: 86b8 57be 0c39 bb3e bff2 473f dfe2 c93c
00000160: 6d84 173e 9e39 ca3d 9c88 c6bd e57c a23e
00000170: 2950 0c3e c4ee 673d 8bbf 07be 4e5f dbbe
00000180: f082 973c eda6 22bd 9db6 153e 807c 293d
00000190: 3cdb 0cbe 4762 36be c7a2 8d3d 7aa9 a73d
000001a0: 0be6 9cbd e7e2 c7be 0434 0bbe 0b5f 103e
000001b0: 79d3 163e e436 dbbe 0f03 0ebf b725 aabd
000001c0: bd10 5f3e 6d52 d03e 7568 f7be 6424 f8be
000001d0: f402 05be d4ef 433e 4fc9 023f 95b0 e8bd
000001e0: 9e88 1bbe ed78 15bf 4b50 aabe ea53 2bbd
000001f0: 240b 753e 4e75 a03e 9017 ac3d 9920 b63e
00000200: 95fb 52be 4c99 b0be 6f3c d5bd 3706 52bb
00000210: 7721 803e ccc5 f6bd d39f 5dbd 9349 95be
00000220: 442c b23d 8c38 923e fdda 343e f707 ccbd
00000230: dbaa ebbe ca9f ed3d 274d fa3d bd1d 303d
00000240: 712c 403e 7a75 51be 48c0 7a3d 40da 8aba
00000250: 91e2 9bbd 9e95 303e fe73 a33e 6869 abbe
00000260: 21ce c4be 61e8 8ebe 524e 75be 316b 43be
00000270: ff97 3ebf bd0f 913d 9175 d1bd 4df0 b73e
00000280: 8786 2ebf 0b78 87bd 3b44 9b3e caa6 043e
00000290: 6e36 393e 41bd 2dbf 2213 6d3e 2f48 6d3e
000002a0: 9e16 593e 5c5d 91bd c37a 22bf 06f5 553e
000002b0: 5e90 c43d 1a8c 983e ffe2 6cbe 0d23 143d
000002c0: bba3 00be 036b 533e 43b2 05bc 944d 94bd
000002d0: c2b9 30be 256a febd 7294 c8be 399a cebe
000002e0: 548a 5fbf 6610 17be e891 71be d0ae 58be
000002f0: 14ad 97bc d665 e9bd 0578 bcbd 028a 19be
00000300: b4a3 bb3e f066 0b3f 0fb3 1c3f 680e 973e
00000310: fe61 ba3c 9009 853d a1ba a3be 7e3a 90be
00000320: 0f81 8f3e a00e 93be 8d6a adbe 3c3e 71be
00000330: dee2 9cbe 21c1 b13e dba3 0ebe e802 923e
00000340: 8aaf f6be e037 b7bd 06e6 d03d 5ac4 29bd
00000350: 9f45 04be 7475 02bf 57b6 1d3c 5fd1 9e3e
00000360: d217 33be 1d2d 62be 5e1f 06bf e99b 82bd
00000370: d905 3cbe 7499 c3be 59b3 39be 5372 73be
00000380: 194b 4d3d f6b6 b4bd 2d10 b23e 7955 1abc
00000390: 2ca5 993e 61fd 303d 850c 43bf 6df6 f5bd
000003a0: 515c 7dbe 95d0 d63c 07a2 8b3e e381 cd3c
000003b0: 1bcc 22bf b663 97be 885c 00be f59d 013e
000003c0: c0e0 a83e 39bc 1bbe ff3f e2be 9a9c 04bf
000003d0: 03b8 21bf 97c9 ab3e 9a50 6a3e 6190 ddbb
000003e0: 33b5 a3bd 990d e9be
-0.18113875 -0.053562142 0.28666392 0.04416907 0.5446102 0.31764892 0.5116138 -0.18683681
0.053923175 -0.2542254 -0.4760372 0.1401416 0.46697587 0.16203749 -0.6746039 -0.51572436
-0.11907927 -0.43962872 -0.7885042 -0.24021864 -0.34602538 -0.4693809 -0.29700497 0.053177077
0.054514363 -0.004526119 0.08346848 0.17236203 0.014724182 -0.35266423 -0.2022212 0.057360675
0.123800695 0.13646 0.45133102 -0.2577604 0.120581865 0.16425282 0.04789835 0.28606862
-0.8155101 -0.28393325 0.11832577 0.48577 -0.1587438 -0.17556447 -0.6610915 -0.6805503
-0.6830118 -0.6903142 0.095284685 0.13172281 -0.12338003 0.13989028 0.2221829 -0.0056816405
-0.19964728 -0.15270054 0.048633374 0.21655558 -0.09092641 -0.09213605 0.08813557 0.3960481
-0.16440946 0.1280604 -0.0011027533 0.38089868 0.32199234 -0.5878904 0.23242852 -0.1133573
-0.10041408 -0.23393534 -0.25697836 -0.14090663 -0.48137987 -0.10272117 -0.0033384298 0.3082207
0.1177208 -0.21422121 -0.8581617 -0.36868632 -0.21066484 0.3656696 0.78104776 0.024644313
0.1479661 0.09874271 -0.09694025 0.31735912 0.13702454 0.05662419 -0.13256662 -0.4284615
0.018495053 -0.039709974 0.14620443 0.041378498 -0.13755506 -0.17810927 0.06915813 0.08186622
-0.07661065 -0.390403 -0.13594061 0.14098756 0.14729108 -0.42815316 -0.5547342 -0.08307975
0.21783729 0.40687886 -0.48321882 -0.48465264 -0.12989408 0.19134456 0.5108842 -0.11361805
-0.15188834 -0.58387643 -0.33264384 -0.041828074 0.23930031 0.31339496 0.08402932 0.35571745
-0.20603783 -0.34491956 -0.104119174 -0.0032047161 0.25025532 -0.120494455 -0.0541075 -0.29157695
0.08699849 0.28558767 0.17661662 -0.09962457 -0.4602879 0.11602743 0.12221747 0.04299711
0.18766953 -0.2045497 0.06121853 -0.0010593608 -0.076115735 0.17244574 0.31924433 -0.33478856
-0.38438514 -0.27911666 -0.23955658 -0.19083859 -0.7445068 0.0708308 -0.10227502 0.35925522
-0.6817402 -0.06614693 0.30325493 0.1295425 0.1808717 -0.67866904 0.2315183 0.23172067
0.21200034 -0.07097885 -0.6346857 0.2089425 0.09597848 0.2979439 -0.23133467 0.03616624
-0.12562458 0.2064629 -0.008160177 -0.07241359 -0.17258361 -0.12422589 -0.39175755 -0.40352038
-0.87320447 -0.1475235 -0.23590815 -0.21160436 -0.018515147 -0.11396377 -0.092025794 -0.14994052
0.36648333 0.54453945 0.6121072 0.2950318 0.022751804 0.064959645 -0.31978324 -0.28169626
0.2802815 -0.28722095 -0.33870354 -0.23558897 -0.30641836 0.34717658 -0.13929693 0.28517842
-0.481808 -0.08946204 0.102001235 -0.04144702 -0.12917183 -0.5096047 0.009625993 0.31019112
-0.17489555 -0.22087522 -0.5239161 -0.06377394 -0.18361606 -0.38203013 -0.18134822 -0.2377408
0.050120447 -0.088239595 0.34777966 -0.009419792 0.3000883 0.04321039 -0.7619098 -0.120098926
-0.24742247 0.026222507 0.27272055 0.025086349 -0.6359269 -0.2956826 -0.12535298 0.12657912
0.3298397 -0.1520852 -0.4418945 -0.51801455 -0.63171405 0.33552238 0.2288231 -0.006761596
-0.079935454 -0.45518187

conv1.bias f4 [10]
00000000: c67d b4bf c700 c6bf 4b54 d8bf 3f78 c4bf
00000010: 7c3e c8bf d0e7 14c0 e5f3 ccbf f5a7 c0bf
00000020: b7c3 c0bf b0ed 94bf
-1.4100883 -1.5468987 -1.6900724 -1.5349196 -1.5644069 -2.3266487 -1.6011931 -1.5051256
-1.5059727 -1.1635036

conv2.weight f4 [20, 10, 5, 5]
00000000: e759 013e ab0a 6cbd 3550 47be 8e60 8bbd
00000010: 27b3 79be b28a bd3e 8dce 85bd 882d 8dbe
00000020: 9214 dabd 4902 dbbd 9e11 363e 295e abbe
00000030: 0fb8 91be 1cee 9f3c f887 b53d 9c56 1a3d
00000040: 7ed8 48be 9448 dbbd b924 f7bd 404a f8bc
00000050: 1c8b 93be 0a7f 35be a3ec d0be 8a34 8ebe
00000060: cfc4 58be 3255 a7bb c99a 98bd e634 15be
00000070: c4da 653c 32f6 1fbe b753 893e 8c41 71be
00000080: 263a aabe 853f 4abe 8c2c abbe 353d 123e
00000090: 2660 6bbd 99ec a3bd 7f15 44be 57b5 76bd
000000a0: efcd 59be 1d48 b0bd ff7f 9cbe 939e a3be
000000b0: 483e 47be 4d0e 03bf 2edc 2abe e54e cbbd
000000c0: 5b7a 52bd 184e 573e 0628 053e fe71 993c
000000d0: 658c 29bc 409d dc3c f9ed 9f3e 015d c9bd
000000e0: 1a65 803b f01f f6bd 1613 073b 6888 22bd
000000f0: 0ba6 5f3d 6188 c4bd c673 d0bc 3f67 22bd
00000100: 0e35 003e 47eb 053e 34f7 81bd f6e5 973d
00000110: 21c9 fa3d 56d3 7cbd d693 76be f11d 4bbe
00000120: 74ec 1dbc ce10 34be 176d 67bd 859f c1be
00000130: dae7 a7be 7a51 b1be 992a b8be f881 bdbe
00000140: 04a1 23bd 613c 44be 8ad1 56be 6ca1 d3bc
00000150: ba1c cabc 428a ecbd 7410 26be 49be d1bd
00000160: 9927 bbbc defc 9c3b 4742 8fbb ba1b 11be
00000170: b815 eabd 604e debc 9675 7fbe 0fab c9bc
00000180: b3bc 0abe b51d 14be f0aa c4bd 9fce 423d
00000190: 3539 8fbd e6c3 e5bd cf2e c23d 1d62 ffbd
000001a0: d81f 323d 156a 533e 31b3 a1bb 81e8 423e
000001b0: 995a 98bd 1f98 75bd 2e5e f63d 915c a43c
000001c0: 4775 a6bc 4fbf d33c f2eb bdbd a768 9f3d
000001d0: 0e1f 293d 8f78 e0bd 3aed 303d bed9 163e
000001e0: ef03 49be d2d5 c53d ee62 6f3d 167d bf3e
000001f0: c56f a63d f5f4 afbc 6ba6 58be 23e9 dcbd
00000200: 4540 b13d b852 803e fe35 1a3e 813d 18be
00000210: 99c1 3fbe cfcf d0bc aff5 8dbd 123d 5abd
00000220: 2692 a8be 385d 9f3d 7099 19bd 5dc9 76be
00000230: 1ba6 b9be 7c1d 94be 1ad9 8ebc e2a3 0bbe
00000240: 3a5e b4bd 9ff1 a2be b4eb 5f3d a361 853d
00000250: ac03 0dbd 33ca 493d 770c 67be ba62 58be
00000260: ee6e f43b 89a4 b23d 48bb e4bd 9aed ab3d
00000270: efce 07be c0f7 b43e 868e 2e3e a725 543d
00000280: 5a34 bf3e ca6c 733d 6eaf 843e 0de9 253c
00000290: a898 673e 0f75 863d c449 743d b4d4 fd3d
000002a0: 87a1 823e 5c6f 2bbd 4c4d 6dbc a529 8c3b
000002b0: 8652 a8bd 34f1 d13d 80d0 5bbe 4a4f 82be
000002c0: f57a 9bbe fb80 2abe 0086 1dbe 76d0 bfbe
000002d0: eb7a 9dbd 632a 6fbe a591 59bd c68e 513e
000002e0: ee3c acbd 18bb c23d 1afd e8bd 554e 3b3d
000002f0: de65 da3d bc3f 403e cfe1 3cbe a32f 90be
00000300: 578b 003e f6c7 f83d 4d54 7b3d 2042 12bd
00000310: 6c1d b53d fe8e 35be 2aa0 ea3c d5dd ec3d
00000320: 96fa e43e 7d1d a8bd a0db 6a3e e6a8 d7bd
00000330: e1bd 103d 88f7 883d 1e67 46be e806 163e
00000340: d1bc 02be 9093 863d 6a7f 923e 94fa 0e3d
00000350: bdc2 233d b71e c2bd 2397 8a3d e6da a43e
00000360: e18c cd3d 6e4b 71bd 3fee 243e 2dc2 603e
00000370: c30d 383e 261d 82be fb98 4dbd f699 7ebd
00000380: ed03 0b3e 8781 193e 8eb9 d33d 4245 37bc
00000390: 9087 1a3e d602 d1bd e370 af3e c458 c83d
000003a0: b01c 82bd a24e 0dbe f88f 85be 57ff f83e
000003b0: 6d43 2cbe 1b3f 4abc 9023 efbd e1bc 9cbe
000003c0: 0a3d 36bd 533e 00be 604e 22be 9e3f 9dbe
000003d0: fb59 2a3e 8021 94bc 6c8f bfbd 230a a4bd
000003e0: 8d98 0fbe eca8 9d3e d439 cabd b0ec 86be
000003f0: 3e2b 21be 7463 a1be edac 96bd 98e3 8bbe
0.12631951 -0.05762736 -0.1946419 -0.06805526 -0.24384747 0.3701988 -0.06533537 -0.275738
-0.10648455 -0.10693795 0.17780158 -0.33470276 -0.28460738 0.01952272 0.088638246 0.037680253
-0.19613835 -0.107072026 -0.12067551 -0.030308843 -0.2881707 -0.17724243 -0.4080554 -0.2777446
-0.21168827 -0.0051065916 -0.07451398 -0.1457096 0.014029209 -0.1562126 0.26821682 -0.2356016
-0.3324749 -0.19750793 -0.33432424 0.14281161 -0.05746474 -0.08004112 -0.19148825 -0.060231533
-0.21269964 -0.086075045 -0.30566403 -0.3195692 -0.19457352 -0.51193696 -0.16685554 -0.09927157
-0.05138622 0.21025884 0.13003549 0.018731114 -0.010348414 0.026930451 0.31236246 -0.09832192
0.0039183022 -0.1201781 0.0020610741 -0.03968087 0.05460171 -0.09596325 -0.02544583 -0.039649244
0.12520239 0.13078032 -0.063459784 0.074169084 0.122453935 -0.061724983 -0.24079832 -0.1983564
-0.009638894 -0.17584535 -0.05650052 -0.37817016 -0.32794076 -0.34632474 -0.3597 -0.3701322
-0.03994848 -0.19163658 -0.2097837 -0.025833808 -0.024671901 -0.11549808 -0.16217214 -0.10241372
-0.02284603 0.0047908863 -0.0043719145 -0.14170733 -0.11429924 -0.027136981 -0.24947199 -0.0246177
-0.13548546 -0.14464457 -0.09602916 0.04756033 -0.06993333 -0.11219005 0.09481584 -0.124698855
0.0434874 0.20645936 -0.0049346914 0.19034006 -0.07439155 -0.059959527 0.12029682 0.02006367
-0.020319594 0.025848059 -0.092735186 0.07783633 0.04128938 -0.10960495 0.043194987 0.147315
-0.19630407 0.096599236 0.058443956 0.3740012 0.08126787 -0.02147911 -0.21157233 -0.10786655
0.086548366 0.2506311 0.15059659 -0.14867212 -0.18726195 -0.025489716 -0.06931626 -0.053280897
-0.32924002 0.07781452 -0.037499845 -0.24100251 -0.3625954 -0.28928745 -0.017437506 -0.13636735
-0.08807035 -0.31824967 0.054668143 0.06512763 -0.03442733 0.049265098 -0.22563349 -0.21131411
0.007459513 0.08722789 -0.111685336 0.08394928 -0.13262533 0.35345268 0.17046556 0.05179372
0.3734463 0.05942992 0.25915092 0.010126364 0.22616827 0.06565296 0.05964066 0.123940855
0.2551386 -0.041854247 -0.014483761 0.0042774254 -0.08218865 0.10251084 -0.21466255 -0.25451118
-0.30367246 -0.16650765 -0.15383148 -0.3746373 -0.0768946 -0.23356013 -0.053117413 0.2046462
-0.08410059 0.095083416 -0.113764 0.045729 0.10663961 0.18774313 -0.18445514 -0.28161344
0.12553154 0.121475145 0.061359692 -0.035707593 0.088435024 -0.17730328 0.028640825 0.115657486
0.44722432 -0.082087494 0.22935343 -0.10530262 0.035337333 0.06687838 -0.19375274 0.14651072
-0.1276734 0.06571114 0.28612834 0.03490694 0.03998064 -0.09478515 0.06767108 0.32198256
0.10036636 -0.058909826 0.16106509 0.21949072 0.17974 -0.25412863 -0.05019472 -0.062158547
0.13575716 0.14990817 0.10338126 -0.011185946 0.15090775 -0.10205619 0.34265813 0.09782556
-0.06353128 -0.13799527 -0.26086402 0.4863231 -0.16822596 -0.012344147 -0.11676705 -0.30612853
-0.044491805 -0.12523775 -0.1585021 -0.307126 0.16635887 -0.01808238 -0.093535274 -0.08009746
-0.14023037 0.3079294 -0.09874311 -0.26352453 -0.15739152 -0.3152119 -0.07357202 -0.27322078

conv2.bias f4 [20]
00000000: 874b 2fbc d60e 4a3d 94d3 24be 0763 783d
00000010: 823b e2bd 483f eebd 02c6 b43e e0fa bfbc
00000020: d2ae d3be 2fe9 1bbe f602 adbe 05c6 6ebe
00000030: eca9 5dbe 0e9c 233f 81d7 4ebf bb57 16bf
00000040: 46c4 513e 769f 92be 1320 d5be 3fb6 23bf
-0.0106991595 0.049330555 -0.16096336 0.060641315 -0.110465065 -0.11633164 0.35307318 -0.023435056
-0.41344315 -0.15225671 -0.33791322 -0.23317726 -0.21646851 0.63909996 -0.8079758 -0.58727616
0.20485029 -0.28637284 -0.41626033 -0.6394996

fc1.weight f4 [50, 320]
00000000: 4d6d a1bc c12e 10bd cef7 5f3e 3bb3 fc3c
00000010: 2888 923d b86a 75bd 3d01 d7b8 c8b9 ba3d
00000020: 6106 93be bc5f 0c3b 4cf9 a1ba 8779 b2bd
00000030: 231b 193d 0e0b 333e 33f0 143d 043a a0bd
00000040: 0b73 523d 0039 043e 2c5f 463c 6517 143d
00000050: 3771 bdbd 4fa6 f8bc b777 fd3c 7f49 2f3d
00000060: 363e 123d 4363 833b 31e8 903d 202a 27bd
00000070: d6c3 8abe fbba 66be e467 c1bd 1cab 2bbe
00000080: 7573 14bd 672e bb3c 0954 dcbd 41de 413e
00000090: 44a8 60bd 5e6d 47bc 80f7 e7bd 5066 573d
000000a0: 61f6 30bd afc4 25be 0e33 7dbd 1409 30be
000000b0: bdfc 983c 81d8 1d3e 4822 853e 357d 4a3d
000000c0: 4c41 1ebd 8f01 f13d 8d34 573e 41a5 0ebc
000000d0: aff2 9a3d 8bf2 173d e8c3 a5bd 386a a5bc
000000e0: 6040 6d3c ce8d 46bd f432 093e d7c0 13bd
000000f0: 926b 883e 4c9b 36bd 20c1 babd 4b95 5bbe
00000100: 86d1 d43d b813 5cbc b1fd ef3c 38c3 063e
00000110: a1d4 babd 3e1f e5bb 4747 50be 5fe9 efbd
00000120: 1a2c c2bb e845 943c 9fbb 20be 6024 6fbe
00000130: 07f5 7d3e affb 91bc dc43 4dbe fccc 65be
00000140: eeae ad3d 8e04 b3bd 6e09 9cbd 959e 14be
00000150: 43ac 35be adac 323d 49f8 2f3d 8843 0f3c
00000160: d32a 8c3d 86ff 293d 5d09 ddbb 0304 743d
00000170: 098a 833d e1f4 8bbd 9297 c43d a08f 193e
00000180: 5f2d 8c3d 1f52 dfbc c5ee e43d c275 523e
00000190: 7192 853c 9319 01bd 0262 84bd f015 d03c
000001a0: 4d21 54be 1f29 eb3d c702 3b3c 46fa e33c
000001b0: 2dac 393d 8c49 c33d b54d 75bd 2572 b4bd
000001c0: f47b 613d 97b4 96bd 874f c2bb 09e4 183e
000001d0: 24f1 e33c c35f 1f3e cc88 863d f953 033e
000001e0: 60ca f0bd f263 70bd bf9b 33bb 5aac 113e
000001f0: 43fd c1be 03e6 32be 7392 963d 6419 203d
00000200: 464b 17bd 072b 15be 9261 4d3d b641 c5bd
00000210: 81d2 43ba 3aaa 1d3d a0b8 efbb 6d79 073c
00000220: 057f 80bd 9e2b 5d3e 4652 f5bb 87d6 eabd
00000230: 994d c4bd a0ec e93d 4192 c33d c734 7a3e
00000240: c0a2 153e 6247 3ebe ad60 dbbc 5b3a 9fbc
00000250: 4ad4 9d3d f6dc 1abd 9228 bc3d 3b97 98bd
00000260: b346 13be 79cd 31be 7ff7 eebd 1cad 0abe
00000270: bd1c 1fbe 9239 4cbc 311c 30be c513 d5bd
00000280: 2d1f 1cbd 4af7 42bc 0b9b 9e3d b825 043d
00000290: 5d6f 1b3d 9065 a5bd 37f5 2d3c 20c8 54be
000002a0: 5528 0b3e 4051 20be 0dab bebb e1d6 52be
000002b0: 7b05 723d 3643 8fbe 1b86 3bbe 6471 19be
000002c0: 32b6 29bd 298c af3d 0014 663d ae13 d3bd
000002d0: e19c 48bc ea0e 92bc 7d50 a63d d122 973e
000002e0: 88a5 273d 1501 40bd 3428 24be 20da cb3d
000002f0: 22f6 9fbe daf0 c5be 49dd bfbe 60e3 29be
00000300: e97f 323e d58e 75bd 3ed0 163d b33e e1bd
00000310: 4422 293e c7f7 5c3d 6d2f af3b c7d0 48bd
00000320: bbfe cc3c 675a fc3b 740d 74be 2759 26be
00000330: 9863 b6be 9473 94be 77c1 36be ed43 9b3c
00000340: 8f65 443e edc3 cb3c 20e6 133c ee7c d53d
00000350: b72c bd3c 50a7 16bd 2c16 51bb 1266 1fbd
00000360: ef7c 253e fb10 1abd 7568 27bd ab2c f5be
00000370: 28e5 9d3e d526 f53d 9b6b b6bd 12f0 56be
00000380: 7b3e 313e 2954 9dbd c86e f93d 87ac d2bb
00000390: bc66 2abc 2a68 25bd 7a8c d23d dc59 c0bd
000003a0: 989c ccbc 40e1 dd3b b865 7d3d 166a 2bbe
000003b0: ded1 2f3d 74af 4abe 1f16 33be 22ea 76be
000003c0: 2578 75bb 4de8 543d b1a6 82bc 0637 163d
000003d0: 708f 94bd 54f2 bcbd 5e82 9dbd 4aa3 9fbd
000003e0: 4faf 95bd cea9 bb3c d694 793d 2e56 3d3e
000003f0: 5017 20be 7329 423d 16d6 f6bd 53a6 ed3d
-0.019705439 -0.035200838 0.21871874 0.030847182 0.07154876 -0.059916228 -0.000102522295 0.09117466
-0.28715804 0.0021419367 -0.0012357621 -0.08714586 0.037379395 0.17484686 0.036361884 -0.078235656
0.051379245 0.12912369 0.012107652 0.036155123 -0.0925011 -0.03035274 0.030940874 0.0427947
0.03570386 0.0040096357 0.07075537 -0.040811658 -0.27102536 -0.22532265 -0.09443644 -0.16764492
-0.03624292 0.022849275 -0.10758216 0.1893244 -0.05484797 -0.012172071 -0.11326504 0.052587807
-0.043203715 -0.1618831 -0.061816268 -0.17190963 0.018675203 0.15414621 0.26002717 0.049435813
-0.03863649 0.117678754 0.2101614 -0.008706392 0.075658195 0.03709654 -0.08094007 -0.02019225
0.01448068 -0.04847508 0.13398343 -0.03607258 0.2664457 -0.044581696 -0.09118867 -0.2144367
0.10391526 -0.013432436 0.029295774 0.13160408 -0.09122587 -0.0069922497 -0.2033969 -0.11714434
-0.0059256675 0.01809974 -0.15696572 -0.2335372 0.24800502 -0.017820207 -0.20045418 -0.22441477
0.08480631 -0.08741103 -0.07618986 -0.14513619 -0.17741494 0.043621708 0.042961393 0.008744128
0.068441056 0.04150345 -0.006745501 0.05957414 0.064228125 -0.06833816 0.09599222 0.14996195
0.06844591 -0.027260838 0.11178354 0.20552734 0.01630518 -0.03151853 -0.06464006 0.025401086
-0.20715828 0.114824526 0.011414236 0.0278293 0.045330215 0.09535512 -0.05988856 -0.08810834
0.05504985 -0.073586635 -0.0059298906 0.14930739 0.027824946 0.15563874 0.06569061 0.12825002
-0.1175735 -0.058689065 -0.0027406064 0.14225903 -0.37888536 -0.17470555 0.07352152 0.039086714
-0.03693702 -0.14567195 0.05014188 -0.09631674 -0.0007470027 0.03849242 -0.00731571 0.008268696
-0.06274227 0.2159867 -0.0074866144 -0.11466699 -0.09585113 0.11422086 0.0954938 0.24434195
0.14612865 -0.18581918 -0.026779497 -0.019437006 0.077065066 -0.03780838 0.09187426 -0.0745072
-0.14382438 -0.17363538 -0.116683 -0.13542598 -0.15538307 -0.012464898 -0.17198254 -0.10404161
-0.03811567 -0.011899779 0.07744416 0.032262534 0.037948 -0.08076012 0.010617546 -0.20779467
0.13589604 -0.15655994 -0.0058187307 -0.20589782 0.059087258 -0.27980965 -0.18312876 -0.14984661
-0.04143352 0.08571655 0.056171417 -0.10306488 -0.012244434 -0.017829377 0.08120821 0.2951875
0.040929347 -0.046876032 -0.16030961 0.099537134 -0.31242472 -0.38660318 -0.37473515 -0.16590643
0.17431606 -0.05995067 0.03681969 -0.10998287 0.16516978 0.053947236 0.0053462298 -0.04902723
0.025023809 0.0077012065 -0.23833257 -0.16244946 -0.3562286 -0.2899443 -0.17847238 0.018953288
0.19179367 0.024873698 0.009027034 0.10424219 0.02309261 -0.036780655 -0.0031904085 -0.0389157
0.1616094 -0.03761385 -0.040871102 -0.4788564 0.30838895 0.11970297 -0.08907243 -0.20990017
0.1730899 -0.07682068 0.12179333 -0.0064292583 -0.01040047 -0.04038254 0.102807 -0.09392139
-0.024977013 0.0067712367 0.061864585 -0.16739687 0.042924754 -0.19793493 -0.17488907 -0.24112752
-0.0037455645 0.05197935 -0.015948625 0.03667357 -0.07253921 -0.09225908 -0.07690881 -0.07794817
-0.07308828 0.022908118 0.060932957 0.18489906 -0.15633893 0.04740281 -0.120525524 0.116039895

fc1.bias f4 [50]
00000000: 223f 863e 38d2 383e b285 fd3c ce48 f93e
00000010: 89d1 36bd 57bc 86bd 6624 db3d c4cd ab3d
00000020: 9e2d 01be a12b 123d eeff ff3e f513 863c
00000030: 9a1d c53d ed55 cc3d 58ea b43c 46b7 cc3d
00000040: 9e4c 91bd 7df7 ff3d 83f7 6e3d f180 8f3d
00000050: 5383 8c3d 5716 f23d bd40 adbd af63 9f3e
00000060: da3a 373e f0e2 b23e ff2c 843e 455e 623e
00000070: 2eb2 4d3c b47a 343d b8d3 a33e 4fed 1f3e
00000080: a8d1 2dbc 8e7b fb3d a001 d53e a2a8 e33e
00000090: a8ac 6b3d 3f22 a43e a668 203d e048 26bc
000000a0: 79cb e63e 65c0 173d 868c a9bd eeaf e33e
000000b0: 1e36 4abd e69a 993d dce2 613d 1b0c 973d
000000c0: 2f16 24be e10f f93d
0.26220042 0.18048942 0.03094754 0.48688358 -0.044633422 -0.06578892 0.10700302 0.08388856
-0.12615058 0.03568614 0.49999946 0.016366938 0.09624787 0.099773265 0.0220844 0.09995894
-0.07094692 0.124983765 0.058341514 0.070070155 0.068609856 0.11820667 -0.084596135 0.3113074
0.17893544 0.34938765 0.2581558 0.22106273 0.012554688 0.04406233 0.31997466 0.1561787
-0.010609068 0.122794256 0.41602802 0.44464594 0.057537705 0.32057378 0.0391623 -0.010149211
0.45077112 0.037048716 -0.08278756 0.4447016 -0.049368016 0.07500248 0.05514799 0.07375356
-0.16024087 0.12161232

fc2.weight f4 [10, 50]
00000000: 71a2 cdbe fe17 8ebe d1f6 b6be 3410 62be
00000010: 2db0 7f3e c1bb 48be 1070 8dbc 2ab0 1bbe
00000020: 2ddd 33be fbd9 adbe 06ac af3d d3c8 29be
00000030: e856 4b3e 845e ab3e 0deb 003e 7050 b4be
00000040: dabe 4abe 2abc a2be 45bb 6dbe 6631 b6be
00000050: 6dbe a8be 1d49 a2be d567 8bbe 1876 6dbe
00000060: 084e 07be e5a4 9bbe e18f 2bbe 7a4a 66be
00000070: a025 ac3e efee 81be e99c b0be 8a6f b33e
00000080: 5f02 77be fe80 a33e 4e86 3dbd fc2e 11be
00000090: 1971 80be 7d0f 63be 77e7 a0bd 5f2a 8bbe
000000a0: fbf0 513e 527c b53e 2607 1cbd 7185 87be
000000b0: 9f3c c83e 0bc0 c7bb d8a9 9a3e 25bc 613e
000000c0: 912f a5be fc92 c03e 3c41 603e 6770 4c3e
000000d0: 25b7 92be 7bd2 883e 3e3a 44be 6102 d3be
000000e0: 497c 94be f62b 263e 8beb b3be b834 253e
000000f0: 27a1 833e c4ce 81be 2242 bcbe abc3 a0be
00000100: 72a4 cfbe 2d31 59bd c487 22be 3207 583d
00000110: 9e56 47be 2039 633e 8fc5 833e b808 24be
00000120: 1d9b e0be bf2b 943e cfaf ba3e f0f6 b23e
00000130: d88c 7a3e 6789 d6bc 5c8e c0be 8186 5cbe
00000140: 8a7d c73e aca2 babe e6e3 a1be 3d64 7ebe
00000150: 075f 523e e3dd 863e aff9 6cbe ec13 793e
00000160: d5f5 8ebe fd31 64be 9a37 733e b02b acbd
00000170: 5d06 1dbe 7d4f 923e 5dca e4be 8913 37bd
00000180: 57ce 7dbd ea9a 99be 7dec 82be b9df cbbe
00000190: fab7 1cbe 5346 af3e 3eef 473c 4d63 86bd
000001a0: 3e15 953e ac57 343e 61e8 7a3e 13ba 9a3e
000001b0: dfaa 5dbd 1db3 9a3e b997 df3d 229c 3b3e
000001c0: d5dd 083e a0ba 67be 4bb4 813c 63e4 80be
000001d0: 0e63 febd 2109 923e eb01 09be 644c 8ebe
000001e0: c1b9 9cbc 9b9e 5f3c 2488 1bbe 9174 bf3e
000001f0: 891b 99bd ced8 9cbd 1168 63bd 737d 20be
00000200: 9478 743d 43f8 a03c fc62 783e 7b08 6dbe
00000210: 849b 54be b9f7 e1bc 30a7 643e e0d8 e73c
00000220: 81f5 8b3e a673 203d 756e 8ebe cae8 043e
00000230: a8fd 903d 7f8d 863e 5db4 603e 80e1 96bd
00000240: ac92 41bd 37bf c6bc 7360 6d3d d941 fb3d
00000250: b99e 433e b0ba 213d 60ff 23be 6706 cbbd
00000260: 2313 66bd 5bc2 ac3e b342 283c 152c 87bd
00000270: bfdf f4bd 24d9 333e 6d13 b1be f831 0b3e
00000280: b267 64be 233f 62be 49bf 2fbe 4425 e9bd
00000290: afa9 febd 69cb 913e 43ee 43bd 7ccf 913e
000002a0: c2d0 833e 2821 fbbc 264a 70be 4da3 aabd
000002b0: 9001 3c3e 9ec8 c3bd 0f40 603d 1215 6dbd
000002c0: 2f6a 69be e7e4 883e fc83 dbbd 85fd 993e
000002d0: 2493 693e 7279 623e f15a 7d3e 9dff 19bd
000002e0: 5990 01be 8ef6 98be ca66 7c3e 12c1 723e
000002f0: a6b8 54bd 65a0 9e3e abe0 fdbd 3f77 19bd
00000300: d009 18bd af9a bbbd a385 7dbd 7d03 a83e
00000310: fd42 acbd 55bb 0fbe f50e 8a3e 7ab3 883e
00000320: e7eb b03e aa8f e0bd 8732 b33e 0fc3 8fbd
00000330: 3842 14be 5eea d0bd 4dda b53e 7a75 4c3e
00000340: 374f ec3e ed3b 59be 1f75 863e e728 b63e
00000350: 9fb7 bcbd ca4c 15be 5205 82bd 38a4 2cbe
00000360: d05b 7a3c cf30 2bbe ac58 923e e93c 183e
00000370: 2e6c 8d3e 85fa b63e a24a 54bd d8bf 58bc
00000380: fbb4 fcbd f09b 1d3e 0f83 33bd a6fd 9c3e
00000390: b202 42be 5549 fcbc 0ed6 41be 7360 c3be
000003a0: 41c4 913e 1d07 8e3e 80bc b83e aa9e 7d3e
000003b0: 50f9 45bd af5a 343d 30a4 1fbd 795c 043d
000003c0: 1397 9fbe d866 c43d 5027 b53d 3f3c ce3d
000003d0: 5c24 49bc 62a6 08be 213e 47be a964 d53d
000003e0: 0b98 51be 8dd6 aabe 7c4c 84be 0bf7 56bd
000003f0: 1780 46be f914 353d be22 8c3c 427e 6dbe
-0.40162995 -0.2775268 -0.3573518 -0.22076494 0.2496955 -0.19602872 -0.01726535 -0.1520392
-0.1756484 -0.33955368 0.08577733 -0.16580515 0.19857371 0.33470547 0.12589665 -0.3521762
-0.19799367 -0.31784183 -0.23215969 -0.35584563 -0.32957783 -0.31696406 -0.27227655 -0.2318958
-0.1321336 -0.30399242 -0.16754104 -0.22489348 0.33622456 -0.25377604 -0.34494713 0.35046035
-0.24121998 0.3193435 -0.04627066 -0.1417808 -0.25086287 -0.22173877 -0.078566484 -0.27180764
0.20502083 0.3544641 -0.038092755 -0.26468995 0.3910875 -0.0060958914 0.30207705 0.22044428
-0.32262853 0.3761214 0.21899885 0.19964753 -0.28655353 0.26723084 -0.19162843 -0.41212752
-0.29001072 0.16227707 -0.35140643 0.16133392 0.25708887 -0.25353062 -0.36769205 -0.31399283
-0.4055515 -0.053025413 -0.15872103 0.052741237 -0.19466636 0.2218976 0.25736663 -0.16018951
-0.43868342 0.28939626 0.36462256 0.34954023 0.2446779 -0.026188565 -0.37608612 -0.21535684
0.38962966 -0.36452234 -0.31619185 -0.24842925 0.20544063 0.2634116 -0.23142122 0.24324006
-0.2792193 -0.22284694 0.23751679 -0.0840677 -0.15334459 0.2857627 -0.4468564 -0.044696365
-0.06196436 -0.30001003 -0.2557105 -0.39819124 -0.15304556 0.3423334 0.012203036 -0.06561909
0.2911777 0.17611569 0.24502708 0.30220088 -0.054118033 0.30214778 0.10917611 0.18321279
0.13365872 -0.22629786 0.01583304 -0.25174245 -0.12421237 0.2852259 -0.13379638 -0.27792656
-0.019131543 0.013648654 -0.15188652 0.3739362 -0.07475955 -0.0765854 -0.055519167 -0.15672855
0.059685305 0.01964963 0.2425651 -0.23147766 -0.2076245 -0.027583944 0.22329402 0.028301656
0.27335742 0.03917279 -0.27818647 0.12979427 0.07079631 0.26279828 0.21943803 -0.073672295
-0.047259018 -0.0242611 0.05795331 0.12268419 0.19103517 0.03948468 -0.16015387 -0.099133305
-0.056170594 0.3374203 0.010269809 -0.06600205 -0.11956739 0.17563301 -0.34585133 0.1359328
-0.22305182 -0.22094397 -0.17162813 -0.11384061 -0.12434708 0.28475502 -0.047834646 0.2847861
0.25745207 -0.030655459 -0.23465785 -0.083319284 0.18359971 -0.09559749 0.05474859 -0.057881422
-0.22794412 0.2673714 -0.107185334 0.30076233 0.22810036 0.2211664 0.24741723 -0.037597287
-0.1265272 -0.29875606 0.24648586 0.23706463 -0.051933907 0.30981746 -0.12396368 -0.037467238
-0.037118733 -0.09160363 -0.061895024 0.3281516 -0.084112145 -0.14036305 0.26964536 0.2669943
0.3455498 -0.10964902 0.34999487 -0.07019626 -0.14478385 -0.10200952 0.35518113 0.19966689
0.46154186 -0.21214266 0.2626123 0.3557808 -0.092147104 -0.14580074 -0.06348671 -0.1685952
0.015280679 -0.16717838 0.28583276 0.14866985 0.27621597 0.35738006 -0.051828988 -0.013229333
-0.12339207 0.15391517 -0.04382616 0.30662268 -0.1894634 -0.030796686 -0.18929312 -0.38159522
0.28470042 0.27739802 0.36081314 0.24767557 -0.048333466 0.044031795 -0.03897494 0.03231475
-0.31169948 0.095899284 0.08845389 0.10070085 -0.012276735 -0.1334472 -0.19457294 0.1041959
-0.20468156 -0.33366814 -0.25839603 -0.052481692 -0.193848 0.044209454 0.01710641 -0.23192695

fc2.bias f4 [10]
00000000: 10fa 313f 6f11 693f 194a 0abe 5ca5 8fbe
00000010: 87dd b2be 910b 9dbd 7e0b 7dbf 3288 6fbd
00000020: 07f2 d13e b9d8 60bd
0.6952219 0.91042227 -0.13504829 -0.28055847 -0.34934637 -0.07668222 -0.9884566 -0.058479495
0.41004965 -0.054894183
